
CondaError: Run 'conda init' before 'conda activate'

=== Task 4: MODEL=repvit_m0_9  LR=1e-3  WD=0.03  IM=224 ===
Not using distributed mode
Creating model: repvit_m0_9
number of params: 4757060
RepViT(
  (features): ModuleList(
    (0): Sequential(
      (0): Conv2d_BN(
        (c): Conv2d(3, 24, kernel_size=(3, 3), stride=(2, 2), padding=(1, 1), bias=False)
        (bn): BatchNorm2d(24, eps=1e-05, momentum=0.1, affine=True, track_running_stats=True)
      )
      (1): GELU(approximate='none')
      (2): Conv2d_BN(
        (c): Conv2d(24, 48, kernel_size=(3, 3), stride=(2, 2), padding=(1, 1), bias=False)
        (bn): BatchNorm2d(48, eps=1e-05, momentum=0.1, affine=True, track_running_stats=True)
      )
    )
    (1): RepViTBlock(
      (token_mixer): Sequential(
        (0): RepVGGDW(
          (conv): Conv2d_BN(
            (c): Conv2d(48, 48, kernel_size=(3, 3), stride=(1, 1), padding=(1, 1), groups=48, bias=False)
            (bn): BatchNorm2d(48, eps=1e-05, momentum=0.1, affine=True, track_running_stats=True)
          )
          (conv1): Conv2d(48, 48, kernel_size=(1, 1), stride=(1, 1), groups=48)
          (bn): BatchNorm2d(48, eps=1e-05, momentum=0.1, affine=True, track_running_stats=True)
        )
        (1): SEModule(
          (fc1): Conv2d(48, 16, kernel_size=(1, 1), stride=(1, 1))
          (bn): Identity()
          (act): ReLU(inplace=True)
          (fc2): Conv2d(16, 48, kernel_size=(1, 1), stride=(1, 1))
          (gate): Sigmoid()
        )
      )
      (channel_mixer): Residual(
        (m): Sequential(
          (0): Conv2d_BN(
            (c): Conv2d(48, 96, kernel_size=(1, 1), stride=(1, 1), bias=False)
            (bn): BatchNorm2d(96, eps=1e-05, momentum=0.1, affine=True, track_running_stats=True)
          )
          (1): GELU(approximate='none')
          (2): Conv2d_BN(
            (c): Conv2d(96, 48, kernel_size=(1, 1), stride=(1, 1), bias=False)
            (bn): BatchNorm2d(48, eps=1e-05, momentum=0.1, affine=True, track_running_stats=True)
          )
        )
      )
    )
    (2-3): 2 x RepViTBlock(
      (token_mixer): Sequential(
        (0): RepVGGDW(
          (conv): Conv2d_BN(
            (c): Conv2d(48, 48, kernel_size=(3, 3), stride=(1, 1), padding=(1, 1), groups=48, bias=False)
            (bn): BatchNorm2d(48, eps=1e-05, momentum=0.1, affine=True, track_running_stats=True)
          )
          (conv1): Conv2d(48, 48, kernel_size=(1, 1), stride=(1, 1), groups=48)
          (bn): BatchNorm2d(48, eps=1e-05, momentum=0.1, affine=True, track_running_stats=True)
        )
        (1): Identity()
      )
      (channel_mixer): Residual(
        (m): Sequential(
          (0): Conv2d_BN(
            (c): Conv2d(48, 96, kernel_size=(1, 1), stride=(1, 1), bias=False)
            (bn): BatchNorm2d(96, eps=1e-05, momentum=0.1, affine=True, track_running_stats=True)
          )
          (1): GELU(approximate='none')
          (2): Conv2d_BN(
            (c): Conv2d(96, 48, kernel_size=(1, 1), stride=(1, 1), bias=False)
            (bn): BatchNorm2d(48, eps=1e-05, momentum=0.1, affine=True, track_running_stats=True)
          )
        )
      )
    )
    (4): RepViTBlock(
      (token_mixer): Sequential(
        (0): Conv2d_BN(
          (c): Conv2d(48, 48, kernel_size=(3, 3), stride=(2, 2), padding=(1, 1), groups=48, bias=False)
          (bn): BatchNorm2d(48, eps=1e-05, momentum=0.1, affine=True, track_running_stats=True)
        )
        (1): Identity()
        (2): Conv2d_BN(
          (c): Conv2d(48, 96, kernel_size=(1, 1), stride=(1, 1), bias=False)
          (bn): BatchNorm2d(96, eps=1e-05, momentum=0.1, affine=True, track_running_stats=True)
        )
      )
      (channel_mixer): Residual(
        (m): Sequential(
          (0): Conv2d_BN(
            (c): Conv2d(96, 192, kernel_size=(1, 1), stride=(1, 1), bias=False)
            (bn): BatchNorm2d(192, eps=1e-05, momentum=0.1, affine=True, track_running_stats=True)
          )
          (1): GELU(approximate='none')
          (2): Conv2d_BN(
            (c): Conv2d(192, 96, kernel_size=(1, 1), stride=(1, 1), bias=False)
            (bn): BatchNorm2d(96, eps=1e-05, momentum=0.1, affine=True, track_running_stats=True)
          )
        )
      )
    )
    (5): RepViTBlock(
      (token_mixer): Sequential(
        (0): RepVGGDW(
          (conv): Conv2d_BN(
            (c): Conv2d(96, 96, kernel_size=(3, 3), stride=(1, 1), padding=(1, 1), groups=96, bias=False)
            (bn): BatchNorm2d(96, eps=1e-05, momentum=0.1, affine=True, track_running_stats=True)
          )
          (conv1): Conv2d(96, 96, kernel_size=(1, 1), stride=(1, 1), groups=96)
          (bn): BatchNorm2d(96, eps=1e-05, momentum=0.1, affine=True, track_running_stats=True)
        )
        (1): SEModule(
          (fc1): Conv2d(96, 24, kernel_size=(1, 1), stride=(1, 1))
          (bn): Identity()
          (act): ReLU(inplace=True)
          (fc2): Conv2d(24, 96, kernel_size=(1, 1), stride=(1, 1))
          (gate): Sigmoid()
        )
      )
      (channel_mixer): Residual(
        (m): Sequential(
          (0): Conv2d_BN(
            (c): Conv2d(96, 192, kernel_size=(1, 1), stride=(1, 1), bias=False)
            (bn): BatchNorm2d(192, eps=1e-05, momentum=0.1, affine=True, track_running_stats=True)
          )
          (1): GELU(approximate='none')
          (2): Conv2d_BN(
            (c): Conv2d(192, 96, kernel_size=(1, 1), stride=(1, 1), bias=False)
            (bn): BatchNorm2d(96, eps=1e-05, momentum=0.1, affine=True, track_running_stats=True)
          )
        )
      )
    )
    (6-7): 2 x RepViTBlock(
      (token_mixer): Sequential(
        (0): RepVGGDW(
          (conv): Conv2d_BN(
            (c): Conv2d(96, 96, kernel_size=(3, 3), stride=(1, 1), padding=(1, 1), groups=96, bias=False)
            (bn): BatchNorm2d(96, eps=1e-05, momentum=0.1, affine=True, track_running_stats=True)
          )
          (conv1): Conv2d(96, 96, kernel_size=(1, 1), stride=(1, 1), groups=96)
          (bn): BatchNorm2d(96, eps=1e-05, momentum=0.1, affine=True, track_running_stats=True)
        )
        (1): Identity()
      )
      (channel_mixer): Residual(
        (m): Sequential(
          (0): Conv2d_BN(
            (c): Conv2d(96, 192, kernel_size=(1, 1), stride=(1, 1), bias=False)
            (bn): BatchNorm2d(192, eps=1e-05, momentum=0.1, affine=True, track_running_stats=True)
          )
          (1): GELU(approximate='none')
          (2): Conv2d_BN(
            (c): Conv2d(192, 96, kernel_size=(1, 1), stride=(1, 1), bias=False)
            (bn): BatchNorm2d(96, eps=1e-05, momentum=0.1, affine=True, track_running_stats=True)
          )
        )
      )
    )
    (8): RepViTBlock(
      (token_mixer): Sequential(
        (0): Conv2d_BN(
          (c): Conv2d(96, 96, kernel_size=(3, 3), stride=(2, 2), padding=(1, 1), groups=96, bias=False)
          (bn): BatchNorm2d(96, eps=1e-05, momentum=0.1, affine=True, track_running_stats=True)
        )
        (1): Identity()
        (2): Conv2d_BN(
          (c): Conv2d(96, 192, kernel_size=(1, 1), stride=(1, 1), bias=False)
          (bn): BatchNorm2d(192, eps=1e-05, momentum=0.1, affine=True, track_running_stats=True)
        )
      )
      (channel_mixer): Residual(
        (m): Sequential(
          (0): Conv2d_BN(
            (c): Conv2d(192, 384, kernel_size=(1, 1), stride=(1, 1), bias=False)
            (bn): BatchNorm2d(384, eps=1e-05, momentum=0.1, affine=True, track_running_stats=True)
          )
          (1): GELU(approximate='none')
          (2): Conv2d_BN(
            (c): Conv2d(384, 192, kernel_size=(1, 1), stride=(1, 1), bias=False)
            (bn): BatchNorm2d(192, eps=1e-05, momentum=0.1, affine=True, track_running_stats=True)
          )
        )
      )
    )
    (9): RepViTBlock(
      (token_mixer): Sequential(
        (0): RepVGGDW(
          (conv): Conv2d_BN(
            (c): Conv2d(192, 192, kernel_size=(3, 3), stride=(1, 1), padding=(1, 1), groups=192, bias=False)
            (bn): BatchNorm2d(192, eps=1e-05, momentum=0.1, affine=True, track_running_stats=True)
          )
          (conv1): Conv2d(192, 192, kernel_size=(1, 1), stride=(1, 1), groups=192)
          (bn): BatchNorm2d(192, eps=1e-05, momentum=0.1, affine=True, track_running_stats=True)
        )
        (1): SEModule(
          (fc1): Conv2d(192, 48, kernel_size=(1, 1), stride=(1, 1))
          (bn): Identity()
          (act): ReLU(inplace=True)
          (fc2): Conv2d(48, 192, kernel_size=(1, 1), stride=(1, 1))
          (gate): Sigmoid()
        )
      )
      (channel_mixer): Residual(
        (m): Sequential(
          (0): Conv2d_BN(
            (c): Conv2d(192, 384, kernel_size=(1, 1), stride=(1, 1), bias=False)
            (bn): BatchNorm2d(384, eps=1e-05, momentum=0.1, affine=True, track_running_stats=True)
          )
          (1): GELU(approximate='none')
          (2): Conv2d_BN(
            (c): Conv2d(384, 192, kernel_size=(1, 1), stride=(1, 1), bias=False)
            (bn): BatchNorm2d(192, eps=1e-05, momentum=0.1, affine=True, track_running_stats=True)
          )
        )
      )
    )
    (10): RepViTBlock(
      (token_mixer): Sequential(
        (0): RepVGGDW(
          (conv): Conv2d_BN(
            (c): Conv2d(192, 192, kernel_size=(3, 3), stride=(1, 1), padding=(1, 1), groups=192, bias=False)
            (bn): BatchNorm2d(192, eps=1e-05, momentum=0.1, affine=True, track_running_stats=True)
          )
          (conv1): Conv2d(192, 192, kernel_size=(1, 1), stride=(1, 1), groups=192)
          (bn): BatchNorm2d(192, eps=1e-05, momentum=0.1, affine=True, track_running_stats=True)
        )
        (1): Identity()
      )
      (channel_mixer): Residual(
        (m): Sequential(
          (0): Conv2d_BN(
            (c): Conv2d(192, 384, kernel_size=(1, 1), stride=(1, 1), bias=False)
            (bn): BatchNorm2d(384, eps=1e-05, momentum=0.1, affine=True, track_running_stats=True)
          )
          (1): GELU(approximate='none')
          (2): Conv2d_BN(
            (c): Conv2d(384, 192, kernel_size=(1, 1), stride=(1, 1), bias=False)
            (bn): BatchNorm2d(192, eps=1e-05, momentum=0.1, affine=True, track_running_stats=True)
          )
        )
      )
    )
    (11): RepViTBlock(
      (token_mixer): Sequential(
        (0): RepVGGDW(
          (conv): Conv2d_BN(
            (c): Conv2d(192, 192, kernel_size=(3, 3), stride=(1, 1), padding=(1, 1), groups=192, bias=False)
            (bn): BatchNorm2d(192, eps=1e-05, momentum=0.1, affine=True, track_running_stats=True)
          )
          (conv1): Conv2d(192, 192, kernel_size=(1, 1), stride=(1, 1), groups=192)
          (bn): BatchNorm2d(192, eps=1e-05, momentum=0.1, affine=True, track_running_stats=True)
        )
        (1): SEModule(
          (fc1): Conv2d(192, 48, kernel_size=(1, 1), stride=(1, 1))
          (bn): Identity()
          (act): ReLU(inplace=True)
          (fc2): Conv2d(48, 192, kernel_size=(1, 1), stride=(1, 1))
          (gate): Sigmoid()
        )
      )
      (channel_mixer): Residual(
        (m): Sequential(
          (0): Conv2d_BN(
            (c): Conv2d(192, 384, kernel_size=(1, 1), stride=(1, 1), bias=False)
            (bn): BatchNorm2d(384, eps=1e-05, momentum=0.1, affine=True, track_running_stats=True)
          )
          (1): GELU(approximate='none')
          (2): Conv2d_BN(
            (c): Conv2d(384, 192, kernel_size=(1, 1), stride=(1, 1), bias=False)
            (bn): BatchNorm2d(192, eps=1e-05, momentum=0.1, affine=True, track_running_stats=True)
          )
        )
      )
    )
    (12): RepViTBlock(
      (token_mixer): Sequential(
        (0): RepVGGDW(
          (conv): Conv2d_BN(
            (c): Conv2d(192, 192, kernel_size=(3, 3), stride=(1, 1), padding=(1, 1), groups=192, bias=False)
            (bn): BatchNorm2d(192, eps=1e-05, momentum=0.1, affine=True, track_running_stats=True)
          )
          (conv1): Conv2d(192, 192, kernel_size=(1, 1), stride=(1, 1), groups=192)
          (bn): BatchNorm2d(192, eps=1e-05, momentum=0.1, affine=True, track_running_stats=True)
        )
        (1): Identity()
      )
      (channel_mixer): Residual(
        (m): Sequential(
          (0): Conv2d_BN(
            (c): Conv2d(192, 384, kernel_size=(1, 1), stride=(1, 1), bias=False)
            (bn): BatchNorm2d(384, eps=1e-05, momentum=0.1, affine=True, track_running_stats=True)
          )
          (1): GELU(approximate='none')
          (2): Conv2d_BN(
            (c): Conv2d(384, 192, kernel_size=(1, 1), stride=(1, 1), bias=False)
            (bn): BatchNorm2d(192, eps=1e-05, momentum=0.1, affine=True, track_running_stats=True)
          )
        )
      )
    )
    (13): RepViTBlock(
      (token_mixer): Sequential(
        (0): RepVGGDW(
          (conv): Conv2d_BN(
            (c): Conv2d(192, 192, kernel_size=(3, 3), stride=(1, 1), padding=(1, 1), groups=192, bias=False)
            (bn): BatchNorm2d(192, eps=1e-05, momentum=0.1, affine=True, track_running_stats=True)
          )
          (conv1): Conv2d(192, 192, kernel_size=(1, 1), stride=(1, 1), groups=192)
          (bn): BatchNorm2d(192, eps=1e-05, momentum=0.1, affine=True, track_running_stats=True)
        )
        (1): SEModule(
          (fc1): Conv2d(192, 48, kernel_size=(1, 1), stride=(1, 1))
          (bn): Identity()
          (act): ReLU(inplace=True)
          (fc2): Conv2d(48, 192, kernel_size=(1, 1), stride=(1, 1))
          (gate): Sigmoid()
        )
      )
      (channel_mixer): Residual(
        (m): Sequential(
          (0): Conv2d_BN(
            (c): Conv2d(192, 384, kernel_size=(1, 1), stride=(1, 1), bias=False)
            (bn): BatchNorm2d(384, eps=1e-05, momentum=0.1, affine=True, track_running_stats=True)
          )
          (1): GELU(approximate='none')
          (2): Conv2d_BN(
            (c): Conv2d(384, 192, kernel_size=(1, 1), stride=(1, 1), bias=False)
            (bn): BatchNorm2d(192, eps=1e-05, momentum=0.1, affine=True, track_running_stats=True)
          )
        )
      )
    )
    (14): RepViTBlock(
      (token_mixer): Sequential(
        (0): RepVGGDW(
          (conv): Conv2d_BN(
            (c): Conv2d(192, 192, kernel_size=(3, 3), stride=(1, 1), padding=(1, 1), groups=192, bias=False)
            (bn): BatchNorm2d(192, eps=1e-05, momentum=0.1, affine=True, track_running_stats=True)
          )
          (conv1): Conv2d(192, 192, kernel_size=(1, 1), stride=(1, 1), groups=192)
          (bn): BatchNorm2d(192, eps=1e-05, momentum=0.1, affine=True, track_running_stats=True)
        )
        (1): Identity()
      )
      (channel_mixer): Residual(
        (m): Sequential(
          (0): Conv2d_BN(
            (c): Conv2d(192, 384, kernel_size=(1, 1), stride=(1, 1), bias=False)
            (bn): BatchNorm2d(384, eps=1e-05, momentum=0.1, affine=True, track_running_stats=True)
          )
          (1): GELU(approximate='none')
          (2): Conv2d_BN(
            (c): Conv2d(384, 192, kernel_size=(1, 1), stride=(1, 1), bias=False)
            (bn): BatchNorm2d(192, eps=1e-05, momentum=0.1, affine=True, track_running_stats=True)
          )
        )
      )
    )
    (15): RepViTBlock(
      (token_mixer): Sequential(
        (0): RepVGGDW(
          (conv): Conv2d_BN(
            (c): Conv2d(192, 192, kernel_size=(3, 3), stride=(1, 1), padding=(1, 1), groups=192, bias=False)
            (bn): BatchNorm2d(192, eps=1e-05, momentum=0.1, affine=True, track_running_stats=True)
          )
          (conv1): Conv2d(192, 192, kernel_size=(1, 1), stride=(1, 1), groups=192)
          (bn): BatchNorm2d(192, eps=1e-05, momentum=0.1, affine=True, track_running_stats=True)
        )
        (1): SEModule(
          (fc1): Conv2d(192, 48, kernel_size=(1, 1), stride=(1, 1))
          (bn): Identity()
          (act): ReLU(inplace=True)
          (fc2): Conv2d(48, 192, kernel_size=(1, 1), stride=(1, 1))
          (gate): Sigmoid()
        )
      )
      (channel_mixer): Residual(
        (m): Sequential(
          (0): Conv2d_BN(
            (c): Conv2d(192, 384, kernel_size=(1, 1), stride=(1, 1), bias=False)
            (bn): BatchNorm2d(384, eps=1e-05, momentum=0.1, affine=True, track_running_stats=True)
          )
          (1): GELU(approximate='none')
          (2): Conv2d_BN(
            (c): Conv2d(384, 192, kernel_size=(1, 1), stride=(1, 1), bias=False)
            (bn): BatchNorm2d(192, eps=1e-05, momentum=0.1, affine=True, track_running_stats=True)
          )
        )
      )
    )
    (16): RepViTBlock(
      (token_mixer): Sequential(
        (0): RepVGGDW(
          (conv): Conv2d_BN(
            (c): Conv2d(192, 192, kernel_size=(3, 3), stride=(1, 1), padding=(1, 1), groups=192, bias=False)
            (bn): BatchNorm2d(192, eps=1e-05, momentum=0.1, affine=True, track_running_stats=True)
          )
          (conv1): Conv2d(192, 192, kernel_size=(1, 1), stride=(1, 1), groups=192)
          (bn): BatchNorm2d(192, eps=1e-05, momentum=0.1, affine=True, track_running_stats=True)
        )
        (1): Identity()
      )
      (channel_mixer): Residual(
        (m): Sequential(
          (0): Conv2d_BN(
            (c): Conv2d(192, 384, kernel_size=(1, 1), stride=(1, 1), bias=False)
            (bn): BatchNorm2d(384, eps=1e-05, momentum=0.1, affine=True, track_running_stats=True)
          )
          (1): GELU(approximate='none')
          (2): Conv2d_BN(
            (c): Conv2d(384, 192, kernel_size=(1, 1), stride=(1, 1), bias=False)
            (bn): BatchNorm2d(192, eps=1e-05, momentum=0.1, affine=True, track_running_stats=True)
          )
        )
      )
    )
    (17): RepViTBlock(
      (token_mixer): Sequential(
        (0): RepVGGDW(
          (conv): Conv2d_BN(
            (c): Conv2d(192, 192, kernel_size=(3, 3), stride=(1, 1), padding=(1, 1), groups=192, bias=False)
            (bn): BatchNorm2d(192, eps=1e-05, momentum=0.1, affine=True, track_running_stats=True)
          )
          (conv1): Conv2d(192, 192, kernel_size=(1, 1), stride=(1, 1), groups=192)
          (bn): BatchNorm2d(192, eps=1e-05, momentum=0.1, affine=True, track_running_stats=True)
        )
        (1): SEModule(
          (fc1): Conv2d(192, 48, kernel_size=(1, 1), stride=(1, 1))
          (bn): Identity()
          (act): ReLU(inplace=True)
          (fc2): Conv2d(48, 192, kernel_size=(1, 1), stride=(1, 1))
          (gate): Sigmoid()
        )
      )
      (channel_mixer): Residual(
        (m): Sequential(
          (0): Conv2d_BN(
            (c): Conv2d(192, 384, kernel_size=(1, 1), stride=(1, 1), bias=False)
            (bn): BatchNorm2d(384, eps=1e-05, momentum=0.1, affine=True, track_running_stats=True)
          )
          (1): GELU(approximate='none')
          (2): Conv2d_BN(
            (c): Conv2d(384, 192, kernel_size=(1, 1), stride=(1, 1), bias=False)
            (bn): BatchNorm2d(192, eps=1e-05, momentum=0.1, affine=True, track_running_stats=True)
          )
        )
      )
    )
    (18): RepViTBlock(
      (token_mixer): Sequential(
        (0): RepVGGDW(
          (conv): Conv2d_BN(
            (c): Conv2d(192, 192, kernel_size=(3, 3), stride=(1, 1), padding=(1, 1), groups=192, bias=False)
            (bn): BatchNorm2d(192, eps=1e-05, momentum=0.1, affine=True, track_running_stats=True)
          )
          (conv1): Conv2d(192, 192, kernel_size=(1, 1), stride=(1, 1), groups=192)
          (bn): BatchNorm2d(192, eps=1e-05, momentum=0.1, affine=True, track_running_stats=True)
        )
        (1): Identity()
      )
      (channel_mixer): Residual(
        (m): Sequential(
          (0): Conv2d_BN(
            (c): Conv2d(192, 384, kernel_size=(1, 1), stride=(1, 1), bias=False)
            (bn): BatchNorm2d(384, eps=1e-05, momentum=0.1, affine=True, track_running_stats=True)
          )
          (1): GELU(approximate='none')
          (2): Conv2d_BN(
            (c): Conv2d(384, 192, kernel_size=(1, 1), stride=(1, 1), bias=False)
            (bn): BatchNorm2d(192, eps=1e-05, momentum=0.1, affine=True, track_running_stats=True)
          )
        )
      )
    )
    (19): RepViTBlock(
      (token_mixer): Sequential(
        (0): RepVGGDW(
          (conv): Conv2d_BN(
            (c): Conv2d(192, 192, kernel_size=(3, 3), stride=(1, 1), padding=(1, 1), groups=192, bias=False)
            (bn): BatchNorm2d(192, eps=1e-05, momentum=0.1, affine=True, track_running_stats=True)
          )
          (conv1): Conv2d(192, 192, kernel_size=(1, 1), stride=(1, 1), groups=192)
          (bn): BatchNorm2d(192, eps=1e-05, momentum=0.1, affine=True, track_running_stats=True)
        )
        (1): SEModule(
          (fc1): Conv2d(192, 48, kernel_size=(1, 1), stride=(1, 1))
          (bn): Identity()
          (act): ReLU(inplace=True)
          (fc2): Conv2d(48, 192, kernel_size=(1, 1), stride=(1, 1))
          (gate): Sigmoid()
        )
      )
      (channel_mixer): Residual(
        (m): Sequential(
          (0): Conv2d_BN(
            (c): Conv2d(192, 384, kernel_size=(1, 1), stride=(1, 1), bias=False)
            (bn): BatchNorm2d(384, eps=1e-05, momentum=0.1, affine=True, track_running_stats=True)
          )
          (1): GELU(approximate='none')
          (2): Conv2d_BN(
            (c): Conv2d(384, 192, kernel_size=(1, 1), stride=(1, 1), bias=False)
            (bn): BatchNorm2d(192, eps=1e-05, momentum=0.1, affine=True, track_running_stats=True)
          )
        )
      )
    )
    (20): RepViTBlock(
      (token_mixer): Sequential(
        (0): RepVGGDW(
          (conv): Conv2d_BN(
            (c): Conv2d(192, 192, kernel_size=(3, 3), stride=(1, 1), padding=(1, 1), groups=192, bias=False)
            (bn): BatchNorm2d(192, eps=1e-05, momentum=0.1, affine=True, track_running_stats=True)
          )
          (conv1): Conv2d(192, 192, kernel_size=(1, 1), stride=(1, 1), groups=192)
          (bn): BatchNorm2d(192, eps=1e-05, momentum=0.1, affine=True, track_running_stats=True)
        )
        (1): Identity()
      )
      (channel_mixer): Residual(
        (m): Sequential(
          (0): Conv2d_BN(
            (c): Conv2d(192, 384, kernel_size=(1, 1), stride=(1, 1), bias=False)
            (bn): BatchNorm2d(384, eps=1e-05, momentum=0.1, affine=True, track_running_stats=True)
          )
          (1): GELU(approximate='none')
          (2): Conv2d_BN(
            (c): Conv2d(384, 192, kernel_size=(1, 1), stride=(1, 1), bias=False)
            (bn): BatchNorm2d(192, eps=1e-05, momentum=0.1, affine=True, track_running_stats=True)
          )
        )
      )
    )
    (21): RepViTBlock(
      (token_mixer): Sequential(
        (0): RepVGGDW(
          (conv): Conv2d_BN(
            (c): Conv2d(192, 192, kernel_size=(3, 3), stride=(1, 1), padding=(1, 1), groups=192, bias=False)
            (bn): BatchNorm2d(192, eps=1e-05, momentum=0.1, affine=True, track_running_stats=True)
          )
          (conv1): Conv2d(192, 192, kernel_size=(1, 1), stride=(1, 1), groups=192)
          (bn): BatchNorm2d(192, eps=1e-05, momentum=0.1, affine=True, track_running_stats=True)
        )
        (1): SEModule(
          (fc1): Conv2d(192, 48, kernel_size=(1, 1), stride=(1, 1))
          (bn): Identity()
          (act): ReLU(inplace=True)
          (fc2): Conv2d(48, 192, kernel_size=(1, 1), stride=(1, 1))
          (gate): Sigmoid()
        )
      )
      (channel_mixer): Residual(
        (m): Sequential(
          (0): Conv2d_BN(
            (c): Conv2d(192, 384, kernel_size=(1, 1), stride=(1, 1), bias=False)
            (bn): BatchNorm2d(384, eps=1e-05, momentum=0.1, affine=True, track_running_stats=True)
          )
          (1): GELU(approximate='none')
          (2): Conv2d_BN(
            (c): Conv2d(384, 192, kernel_size=(1, 1), stride=(1, 1), bias=False)
            (bn): BatchNorm2d(192, eps=1e-05, momentum=0.1, affine=True, track_running_stats=True)
          )
        )
      )
    )
    (22-23): 2 x RepViTBlock(
      (token_mixer): Sequential(
        (0): RepVGGDW(
          (conv): Conv2d_BN(
            (c): Conv2d(192, 192, kernel_size=(3, 3), stride=(1, 1), padding=(1, 1), groups=192, bias=False)
            (bn): BatchNorm2d(192, eps=1e-05, momentum=0.1, affine=True, track_running_stats=True)
          )
          (conv1): Conv2d(192, 192, kernel_size=(1, 1), stride=(1, 1), groups=192)
          (bn): BatchNorm2d(192, eps=1e-05, momentum=0.1, affine=True, track_running_stats=True)
        )
        (1): Identity()
      )
      (channel_mixer): Residual(
        (m): Sequential(
          (0): Conv2d_BN(
            (c): Conv2d(192, 384, kernel_size=(1, 1), stride=(1, 1), bias=False)
            (bn): BatchNorm2d(384, eps=1e-05, momentum=0.1, affine=True, track_running_stats=True)
          )
          (1): GELU(approximate='none')
          (2): Conv2d_BN(
            (c): Conv2d(384, 192, kernel_size=(1, 1), stride=(1, 1), bias=False)
            (bn): BatchNorm2d(192, eps=1e-05, momentum=0.1, affine=True, track_running_stats=True)
          )
        )
      )
    )
    (24): RepViTBlock(
      (token_mixer): Sequential(
        (0): Conv2d_BN(
          (c): Conv2d(192, 192, kernel_size=(3, 3), stride=(2, 2), padding=(1, 1), groups=192, bias=False)
          (bn): BatchNorm2d(192, eps=1e-05, momentum=0.1, affine=True, track_running_stats=True)
        )
        (1): Identity()
        (2): Conv2d_BN(
          (c): Conv2d(192, 384, kernel_size=(1, 1), stride=(1, 1), bias=False)
          (bn): BatchNorm2d(384, eps=1e-05, momentum=0.1, affine=True, track_running_stats=True)
        )
      )
      (channel_mixer): Residual(
        (m): Sequential(
          (0): Conv2d_BN(
            (c): Conv2d(384, 768, kernel_size=(1, 1), stride=(1, 1), bias=False)
            (bn): BatchNorm2d(768, eps=1e-05, momentum=0.1, affine=True, track_running_stats=True)
          )
          (1): GELU(approximate='none')
          (2): Conv2d_BN(
            (c): Conv2d(768, 384, kernel_size=(1, 1), stride=(1, 1), bias=False)
            (bn): BatchNorm2d(384, eps=1e-05, momentum=0.1, affine=True, track_running_stats=True)
          )
        )
      )
    )
    (25): RepViTBlock(
      (token_mixer): Sequential(
        (0): RepVGGDW(
          (conv): Conv2d_BN(
            (c): Conv2d(384, 384, kernel_size=(3, 3), stride=(1, 1), padding=(1, 1), groups=384, bias=False)
            (bn): BatchNorm2d(384, eps=1e-05, momentum=0.1, affine=True, track_running_stats=True)
          )
          (conv1): Conv2d(384, 384, kernel_size=(1, 1), stride=(1, 1), groups=384)
          (bn): BatchNorm2d(384, eps=1e-05, momentum=0.1, affine=True, track_running_stats=True)
        )
        (1): SEModule(
          (fc1): Conv2d(384, 96, kernel_size=(1, 1), stride=(1, 1))
          (bn): Identity()
          (act): ReLU(inplace=True)
          (fc2): Conv2d(96, 384, kernel_size=(1, 1), stride=(1, 1))
          (gate): Sigmoid()
        )
      )
      (channel_mixer): Residual(
        (m): Sequential(
          (0): Conv2d_BN(
            (c): Conv2d(384, 768, kernel_size=(1, 1), stride=(1, 1), bias=False)
            (bn): BatchNorm2d(768, eps=1e-05, momentum=0.1, affine=True, track_running_stats=True)
          )
          (1): GELU(approximate='none')
          (2): Conv2d_BN(
            (c): Conv2d(768, 384, kernel_size=(1, 1), stride=(1, 1), bias=False)
            (bn): BatchNorm2d(384, eps=1e-05, momentum=0.1, affine=True, track_running_stats=True)
          )
        )
      )
    )
    (26): RepViTBlock(
      (token_mixer): Sequential(
        (0): RepVGGDW(
          (conv): Conv2d_BN(
            (c): Conv2d(384, 384, kernel_size=(3, 3), stride=(1, 1), padding=(1, 1), groups=384, bias=False)
            (bn): BatchNorm2d(384, eps=1e-05, momentum=0.1, affine=True, track_running_stats=True)
          )
          (conv1): Conv2d(384, 384, kernel_size=(1, 1), stride=(1, 1), groups=384)
          (bn): BatchNorm2d(384, eps=1e-05, momentum=0.1, affine=True, track_running_stats=True)
        )
        (1): Identity()
      )
      (channel_mixer): Residual(
        (m): Sequential(
          (0): Conv2d_BN(
            (c): Conv2d(384, 768, kernel_size=(1, 1), stride=(1, 1), bias=False)
            (bn): BatchNorm2d(768, eps=1e-05, momentum=0.1, affine=True, track_running_stats=True)
          )
          (1): GELU(approximate='none')
          (2): Conv2d_BN(
            (c): Conv2d(768, 384, kernel_size=(1, 1), stride=(1, 1), bias=False)
            (bn): BatchNorm2d(384, eps=1e-05, momentum=0.1, affine=True, track_running_stats=True)
          )
        )
      )
    )
  )
  (classifier): Classfier(
    (classifier): BN_Linear(
      (bn): BatchNorm1d(384, eps=1e-05, momentum=0.1, affine=True, track_running_stats=True)
      (l): Linear(in_features=384, out_features=100, bias=True)
    )
  )
)
{
  "batch_size": 256,
  "epochs": 300,
  "model": "repvit_m0_9",
  "input_size": 224,
  "model_ema": true,
  "model_ema_decay": 0.99996,
  "model_ema_force_cpu": false,
  "opt": "adamw",
  "opt_eps": 1e-08,
  "opt_betas": null,
  "clip_grad": 0.02,
  "clip_mode": "agc",
  "momentum": 0.9,
  "weight_decay": 0.03,
  "sched": "cosine",
  "lr": 0.0005,
…
